model_files/tf-light/saved_model.tflite (tflite, 919580 bytes, 16 tensors)

sequential/conv2d/BiasAdd/ReadVariableOp f4 [16]
-0.008846935 0.0065206154 0.031161606 0.02237566 -0.009122284 0.029443055 0.009139428 0.0017023617
0.0034263136 -0.008243912 -0.008360816 0.015049096 -0.019733593 0.025469987 0.0046263235 0.016250929
00000000: bcf2 10bc e3aa d53b a046 ff3c 294d b73c
00000010: a275 15bc 9032 f13c 8abd 153c c821 df3a
00000020: 018c 603b 7911 07bc cefb 08bc 7c90 763c
00000030: 58a8 a1bc 6fa6 d03c 6a98 973b ab20 853c

sequential/conv2d_1/BiasAdd/ReadVariableOp f4 [32]
-0.012827669 0.0042345393 -0.041232485 -0.045430247 -0.030491576 -0.032522965 -0.102863625 -0.03731119
-0.13429837 -0.05398228 -0.026381496 -0.086751975 -0.037433147 0.0054653613 0.01668032 -0.021919128
-0.016923433 -0.016546275 -0.05656765 -0.032901168 -0.0030355623 -0.0767596 -0.01105766 -0.09089707
0.015873924 -0.020307384 -0.022817452 -0.010639135 -0.007454222 -0.0149593195 0.029511243 -0.09648934
00000000: 252b 52bc e4c1 8a3b 65e3 28bd 1115 3abd
00000010: 78c9 f9bc cd36 05bd 2aaa d2bd 9ed3 18bd
00000020: 8385 09be 861c 5dbd 021e d8bc 05ab b1bd
00000030: 8053 19bd c616 b33b 2ba5 883c be8f b3bc
00000040: 03a3 8abc 0e8c 87bc 7bb3 67bd 60c3 06bd
00000050: 49f0 46bb 2334 9dbd 302b 35bc 3e28 babd
00000060: 080a 823c ac5b a6bc aaeb babc c44f 2ebc
00000070: 8c42 f4bb ef17 75bc 90c1 f13c 349c c5bd

sequential/conv2d_2/BiasAdd/ReadVariableOp f4 [64]
-0.101224005 -0.064618975 -0.14757815 -0.06461024 0.008188346 -0.0032468785 -0.046440594 0.0055201584
0.0016463331 -0.032419823 -0.031354897 0.044805355 -0.064198725 0.0024047724 -0.050350375 -0.05389832
0.0127783585 -0.085064024 -0.02148557 -0.033905506 -0.07432668 -0.00041175092 -0.0069004684 0.007273675
-0.19903323 -0.0034366932 -0.09279816 -0.00058242434 0.0063835834 -0.15620917 -0.0003225239 0.02115752
-0.156174 -0.017215258 0.02260581 -0.008921079 0.022672059 -0.061299924 -0.12703182 0.021566875
0.020010076 -0.04392798 -0.0037163466 0.012032645 -0.049703427 -0.039998922 -0.045938417 0.0028799258
-0.029407358 -0.029110916 0.02729048 -0.022532033 -0.051302027 0.039746538 0.01802792 -0.066581346
-0.046071514 -0.0046716444 0.006395532 -0.050149214 -0.009246265 -0.07359367 0.012398039 0.010481115
00000000: 884e cfbd f456 84bd ba1e 17be 6052 84bd
00000010: 6a28 063c 95c9 54bb 7e38 3ebd 72e2 b43b
00000020: c6c9 d73a a6ca 04bd fe6d 00bd d285 373d
00000030: 9f7a 83bd 6399 1d3b 323c 4ebd 7cc4 5cbd
00000040: 525c 513c 0c36 aebd 8202 b0bc 80e0 0abd
00000050: 9638 98bd 46e0 d7b9 531d e2bb 0258 ee3b
00000060: 5ecf 4bbe 253a 61bb f60c bebd d6ad 18ba
00000070: 612d d13b 4cf5 1fbe 6d18 a9b9 8952 ad3c
00000080: 14ec 1fbe 0307 8dbc d22f b93c b829 12bc
00000090: c1ba b93c a115 7bbd a114 02be 04ad b03c
000000a0: 2cec a33c d3ed 33bd f38d 73bb 9224 453c
000000b0: d295 4bbd e9d5 23bd ec29 3cbd 23bd 3c3b
000000c0: b3e7 f0bc 047a eebc 4990 df3c 1995 b8bc
000000d0: 1322 52bd 44cd 223d 4aaf 933c cd5b 88bd
000000e0: 7cb5 3cbd 9814 99bb 9c91 d13b 4369 4dbd
000000f0: a57d 17bc 47b8 96bd 2521 4b3c fcb8 2b3c

sequential/conv2d/Conv2D f4 [16, 3, 3, 1]
-0.15112646 -0.13088253 0.1626131 -0.1519673 -0.13117741 0.13458945 -0.06906837 -0.03427779
0.005790781 0.12452346 0.057354428 -0.015989305 -0.16024192 0.10406574 0.061783355 -0.09631288
-0.16332926 0.12993203 -0.06850562 -0.13605258 -0.15674485 0.13138266 -0.023235733 0.09908574
0.04221211 -0.020786302 0.145304 -0.17722444 -0.013479789 -0.09964391 0.1438795 0.068008654
-0.17631803 -0.16462994 -0.16587625 -0.1801768 -0.040167086 0.08388908 -0.14303406 0.097023696
-0.17907697 0.17777939 0.08746457 -0.1169199 -0.05888156 -0.15103433 0.109376036 -0.06316445
-0.099172406 -0.037960883 0.00044769212 -0.017108256 0.18704906 0.066979 0.18104674 -0.012980321
-0.11217237 0.059158184 0.022779506 -0.15466781 -0.16531141 -0.09807331 0.18883154 -0.06548071
0.10114007 0.05516565 0.117785946 -0.08083658 0.030941859 0.030948358 -0.013331601 -0.12668657
-0.110976666 0.12964582 -0.03085222 -0.030347787 0.12159994 0.02348905 -0.00062112306 -0.12154982
-0.16187142 -0.0006291346 -0.10240562 0.12997407 -0.06253245 0.21455725 -0.070756584 0.052239902
-0.11051664 -0.04595711 -0.0070023034 -0.1562628 0.06470962 0.036757745 -0.21036159 -0.014274655
-0.01605049 -0.24333353 0.09302028 0.14498219 0.1626635 0.02456646 -0.091473214 -0.053840056
-0.17556623 -0.04419677 -0.053346567 0.071180835 0.10744942 0.004455454 -0.10918877 0.12053402
-0.13940929 -0.0632434 0.10518171 0.10138608 -0.11551129 -0.08995185 -0.077593744 -0.04430623
0.10453784 0.012461946 -0.20840791 0.13807395 0.18368448 -0.021790322 0.11640321 0.13940094
-0.008703631 -0.13165705 0.017672397 -0.006124043 -0.025828838 -0.06835199 -0.031067418 -0.20881064
-0.007343192 -0.20686099 -0.01153052 0.13558507 -0.0027316732 0.18840238 0.117552795 -0.009782322
00000000: e5c0 1abe 1206 06be 0c84 263e 519d 1bbe
00000010: 5f53 06be d1d1 093e b873 8dbd de66 0cbd
00000020: 98c0 bd3b 2806 ff3d 7aec 6a3d 01fc 82bc
00000030: 7516 24be 6b20 d53d 8b10 7d3d b03f c5bd
00000040: c93f 27be e70c 053e ad4c 8cbd 5e51 0bbe
00000050: b981 20be 2d89 063e dd58 bebc 77ed ca3d
00000060: 9be6 2c3d 0948 aabc 92ca 143e 537a 35be
00000070: 55da 5cbc 1b12 ccbd 2655 133e 1f48 8b3d
00000080: b78c 34be c094 28be 77db 29be 4480 38be
00000090: 3e86 24bd 0ace ab3d 8577 12be 5cb4 c63d
000000a0: f45f 37be cd0b 363e a020 b33d b373 efbd
000000b0: ca2d 71bd bea8 1abe 8b00 e03d 5d5c 81bd
000000c0: e71a cbbd df7c 1bbd 38b8 ea39 9d26 8cbc
000000d0: ca89 3f3e 492c 893d 5164 393e 6aab 54bc
000000e0: a1ba e5bd da4f 723d 169c ba3c 3d61 1ebe
000000f0: 6547 29be a9da c8bd 0e5d 413e c01a 86bd
00000100: 8622 cf3d 60f5 613d c239 f13d a68d a5bd
00000110: c879 fd3c 6987 fd3c ca6c 5abc 20ba 01be
00000120: bc47 e3bd e0c1 043e cbbd fcbc ec9b f8bc
00000130: 6409 f93d 1c6c c03c ddd2 22ba 1def f8bd
00000140: 9fc1 25be 82ec 24ba 0aba d1bd ec17 053e
00000150: 0311 80bd e5b4 5b3e d4e8 90bd 82f9 553d
00000160: 8c56 e2bd 863d 3cbd 9473 e5bb 5b03 20be
00000170: 7a86 843d 4a8f 163d 0769 57be 3ee0 69bc
00000180: 517c 83bc 6d2c 79be 6b81 be3d 3676 143e
00000190: 4391 263e 9a3f c93c 4f56 bbbd 6487 5cbd
000001a0: a2c7 33be ac07 35bd ee81 5abd 42c7 913d
000001b0: 710e dc3d 0fff 913b 5d9e dfbd 8ada f63d
000001c0: 4fc1 0ebe c185 81bd 8269 d73d 81a3 cf3d
000001d0: 2f91 ecbd ad38 b8bd 78e9 9ebd 737a 35bd
000001e0: ef17 d63d 312d 4c3c e268 55be 4263 0d3e
000001f0: c917 3c3e 9e81 b2bc ce64 ee3d 1fbf 0e3e
00000200: ad99 0ebc 1bd1 06be b4c5 903c 32ac c8bb
00000210: 0097 d3bc 21fc 8bbd 1981 febc 75d2 55be
00000220: 299f f0bb 5ed3 53be 82ea 3cbc d0d6 0a3e
00000230: df05 33bb 8eec 403e 85bf f03d 0846 20bc

sequential/conv2d_1/Conv2D f4 [32, 3, 3, 16]
-0.081951916 0.0722292 -0.103501774 -0.038085125 -0.14135943 0.067791514 0.08735787 -0.11996945
-0.11488164 -0.11403381 -0.10886438 0.009820306 0.037072826 -0.012178595 -0.0017760529 -0.016631888
0.1086781 -0.037139006 0.0019269384 0.048545055 -0.1515623 0.0709538 -0.039647564 -0.09980376
-0.0042561376 -0.05712434 0.04155562 -0.01563702 0.023620425 0.021337906 -0.011967529 -0.005611371
-0.06928596 -0.092856966 0.009258263 0.002883927 -0.00074595877 -0.00780033 0.059960064 0.068305165
0.077999525 -0.055050135 0.004101905 0.05950624 -0.02101418 -0.09080178 -0.07418176 -0.066210054
-0.04494391 -0.12676121 0.13254687 0.09615847 -0.081473395 0.07297682 0.08410937 0.036798865
-0.057773132 0.025011418 -0.09293872 -0.1130315 0.04960764 0.07148654 0.0664009 -0.02102746
0.096367955 -0.011171205 0.11208827 -0.026529383 -0.030805811 -0.0055849883 -0.06785443 -0.07695769
-0.027044516 -0.11401632 -0.07414238 0.03509851 -0.103242666 0.118228786 -0.10871977 0.11153737
0.11367929 -0.040658407 0.1250715 -0.02916483 -0.009749495 0.09880842 0.034714375 0.07298642
-0.0167551 -0.11722362 0.05969631 0.01941002 -0.03875931 0.019483024 -0.012524683 0.14562894
-0.08002235 0.05568043 -0.06809264 -0.076608695 0.0052555273 0.05233561 -0.039934665 -0.019945722
0.08291378 -0.10470045 0.05001088 -0.074125595 0.039821517 0.060301438 0.055836957 -0.06984113
-0.010452993 0.09170048 -0.044508863 -0.029238336 0.011152554 0.00040191648 -0.016792268 -0.038940907
-0.06322448 -0.09806354 0.09596331 0.015813088 -0.06333486 -0.035906106 -0.02992813 0.07719792
0.032682385 -6.287525e-05 -0.014249141 0.07752448 0.028582301 -0.03175067 -0.11431355 0.022489669
0.052638847 -0.13575481 0.053857807 0.008937359 -0.12881942 -0.059880596 0.063780665 -0.043170184
-0.06982736 -0.056857962 -0.022385597 -0.03396828 -0.05731733 -0.008284765 -0.10013287 -0.03849378
-0.02956399 -0.026746573 -0.07802723 -0.091537446 0.14897811 0.08994874 0.07615509 -0.058555204
0.036406502 -0.07826571 0.03596471 -0.016773507 -0.062121138 -0.08487705 0.10771374 -0.10505197
0.08453134 0.103760846 -0.019806847 0.079350434 0.02715452 -0.06877519 -0.061265748 0.051161546
0.042683285 0.01791486 -0.0753244 0.10088484 -0.018601144 0.08539328 0.0011093847 -0.0626873
0.08130544 0.022690207 -0.01970376 -0.08648319 0.12449186 0.06281939 0.078266375 -0.021617059
-0.027430167 0.06732016 -0.106166765 0.011505471 0.0056052282 0.07052539 -0.008141521 -0.050617777
-0.075142615 -0.09424331 -0.05249974 0.07959154 -0.06960716 0.13066177 -0.047798324 0.05194235
0.00013067045 0.042853262 0.107336454 0.025523327 0.06304334 0.013304923 -0.0015461178 0.06702717
-0.04061261 -0.088350795 -0.02145364 0.10487353 0.0419506 -0.04904072 -0.106740445 -0.049551543
0.07234252 0.058642462 0.056128662 0.08118128 -0.004351408 -0.057343874 -0.048747048 0.025245883
0.029510634 0.046142217 0.0050492105 -0.112181626 0.032858793 -0.089909546 0.09934727 -0.07277006
-0.0040579997 0.039243408 -0.027326716 0.067610085 -0.08689769 0.031826604 -0.10346538 -0.09802321
0.07346917 -0.037653558 -0.032822773 0.010867257 -0.064432964 -0.08120265 -0.07251482 0.043464903
00000000: 68d6 a7bd e7ec 933d bdf8 d3bd 26ff 1bbd
00000010: 87c0 10be 47d6 8a3d afe8 b23d 8bb2 f5bd
00000020: 1147 ebbd 8f8a e9bd 4af4 debd 59e5 203c
00000030: add9 173d bb88 47bc 72ca e8ba 993f 88bc
00000040: a092 de3d 121f 18bd 5391 fc3a 2ed7 463d
00000050: 2633 1bbe 3a50 913d 7c65 22bd ea65 ccbd
00000060: 1277 8bbb 36fb 69bd 3a36 2a3d 3519 80bc
00000070: 9f7f c13c d5cc ae3c 7413 44bc 97df b7bb
00000080: cce5 8dbd cb2b bebd f8af 173c 4400 3d3b
00000090: 728c 43ba e999 ffbb af98 753d 94e3 8b3d
000000a0: 37be 9f3d 407c 61bd 4669 863b d1bc 733d
000000b0: ee25 acbc 49f6 b9bd 9bec 97bd 2399 87bd
000000c0: 1b17 38bd b1cd 01be 5eba 073e bbee c43d
000000d0: 86db a6bd df74 953d 8941 ac3d 68ba 163d
000000e0: 85a3 6cbd bfe4 cc3c a856 bebd 0f7d e7bd
000000f0: 6131 4b3d 8967 923d 32fd 873d c841 acbc
00000100: 905c c53d 6e07 37bc 898e e53d 2654 d9bc
00000110: 785c fcbc 4702 b7bb 43f7 8abd fe9b 9dbd
00000120: 768c ddbc 6381 e9bd f6d7 97bd 75c3 0f3d
00000130: e470 d3bd ef21 f23d 79a8 debd b46d e43d
00000140: b0d0 e83d 6e89 26bd be12 003e 15eb eebc
00000150: 59bc 1fbc 125c ca3d a930 0e3d e779 953d
00000160: fe41 89bc f012 f0bd 1e84 743d c301 9f3c
00000170: 15c2 1ebd dd9a 9f3c 5434 4dbc c11f 153e
00000180: c2e2 a3bd 2a11 643d 2774 8bbd 05e5 9cbd
00000190: 8f36 ac3b dd5d 563d 8892 23bd 3665 a3bc
000001a0: b3ce a93d 316d d6bd 35d8 4c3d 29cf 97bd
000001b0: e31b 233d a4fe 763d 4bb5 643d de08 8fbd
000001c0: 0843 2bbc 76cd bb3d ed4e 36bd 3c85 efbc
000001d0: 34b9 363c 51b8 d239 f08f 89bc 8080 1fbd
000001e0: d67b 81bd 8ad5 c8bd 6988 c43d 738a 813c
000001f0: b5b5 81bd 4812 13bd d62b f5bc f119 9e3d
00000200: f7dd 053d e5db 83b8 3b75 69bc 28c5 9e3d
00000210: 6e25 ea3c fe0c 02bd 391d eabd 413c b83c
00000220: d59b 573d 4f03 0bbe 019a 5c3d 006e 123c
00000230: 3de9 03be 5b45 75bd 709f 823d 38d3 30bd
00000240: a601 8fbd e5e3 68bd 0062 b7bc 5322 0bbd
00000250: 94c5 6abd d3bc 07bc 7612 cdbd a7ab 1dbd
00000260: 2e30 f2bc a11b dbbc becc 9fbd fc77 bbbd
00000270: b88d 183e 0c37 b83d 33f7 9b3d 95d7 6fbd
00000280: fc1e 153d c649 a0bd bb4f 133d 9868 89bc
00000290: bc72 7ebd 05d4 adbd 0599 dc3d 7d25 d7bd
000002a0: c41e ad3d 9180 d43d f841 a2bc 7b82 a23d
000002b0: 2873 de3c 02da 8cbd cbf1 7abd c58e 513d
000002c0: abd4 2e3d 2fc2 923c ae43 9abd b69c ce3d
000002d0: 6d61 98bc ace2 ae3d c668 913a 3362 80bd
000002e0: 7783 a63d d0e0 b93c c869 a1bc 191e b1bd
000002f0: 97f5 fe3d 74a7 803d 1f4a a03d 4216 b1bc
00000300: 3bb5 e0bc 27df 893d f66d d9bd 7181 3c3c
00000310: 10ac b73b 9e6f 903d 0464 05bc 9654 4fbd
00000320: 5fe4 99bd a302 c1bd f809 57bd e400 a33d
00000330: 338e 8ebd 33cc 053e 2dc8 43bd 80c1 543d
00000340: 9504 0939 e786 2f3d 37d3 db3d 4c16 d13c
00000350: de1c 813d e4fc 593c 1ba7 caba 8a45 893d
00000360: 6859 26bd 43f1 b4bd 8bbf afbc efc7 d63d
00000370: 64d4 2b3d ecde 48bd bc9a dabd 8ff6 4abd
00000380: 5128 943d 1433 703d 2be7 653d 5f42 a63d
00000390: 4296 8ebb 69e1 6abd fcaa 47bd 74d0 ce3c
000003a0: 49c0 f13c 9fff 3c3d d973 a53b 7bbf e5bd
000003b0: f196 063d 7f22 b8bd 9576 cb3d 7808 95bd
000003c0: f8f8 84bb b2bd 203d 47dc dfbc 2877 8a3d
000003d0: 6bf7 b1bd 9d5c 023d a8e5 d3bd 65c0 c8bd
000003e0: 0177 963d 9e3a 1abd 2c71 06bd 940c 323c
000003f0: 6ef5 83bd 934d a6bd a682 94bd 4108 323d

sequential/conv2d_2/Conv2D f4 [64, 3, 3, 32]
-0.00938665 0.006775882 -0.07461771 0.04027825 0.005301084 0.0022019532 0.031516697 -0.011980783
-0.015987577 0.090853125 -0.049721472 0.019117668 -0.06547016 -0.10357335 -0.027130095 -0.04634427
-0.0044531724 -0.011577171 -0.051560406 -0.03320179 0.062958986 0.055185553 -0.005192936 -0.049784526
0.0030098506 0.074116424 -0.0723607 -0.006678649 0.014615114 0.05057609 -0.0320044 -0.041105114
-0.102211714 0.03274888 -0.03256186 0.010877018 -0.011281711 0.08089981 0.06646016 0.0012873713
0.030084863 0.021672418 -0.120067075 0.08832096 0.0666468 -0.14139971 0.08273283 -0.085585356
-0.010850088 -0.06679536 0.023758968 -0.0043689227 -0.022426393 -0.0033298307 0.051830027 -0.021320073
-0.018350106 0.06713461 -0.011239542 -0.030867657 0.029498115 0.0021429686 -0.06326228 -0.029750708
-0.05182148 -0.0020625545 -0.027661594 -0.04215279 0.04416144 -0.030149575 0.042777073 -0.05381431
0.020208396 0.039569274 -0.088384815 0.008374965 0.046910897 -0.044454828 0.018973969 -0.07318987
0.04296276 -0.071304485 -0.08075169 -0.05766768 -0.018185753 0.08248917 -0.04999832 -0.04009976
-0.011849882 0.054473534 -0.009442727 0.0529246 0.029574007 0.012370058 0.055411864 0.015403559
-0.028729826 -0.05248255 -0.06669743 0.038028724 -0.033349305 0.05010215 0.061710883 0.0010587467
-0.0051427986 0.045372535 -0.06951972 -0.05294905 0.039196864 -0.061799396 0.06752667 -0.056193613
0.026626825 0.022644931 -0.036797136 0.0104705915 0.0557763 -0.012961899 -0.0284323 -0.024820266
0.01203981 -0.039109193 -0.03449962 0.023465158 -0.022344453 -0.0019058095 0.043606065 -0.03172029
-0.07588508 0.027400605 -0.05805709 3.8124737e-05 -0.0552229 0.028052462 0.05226854 -0.012494436
0.020089632 -0.05513524 0.018826839 0.021400744 -0.069383234 -0.07815364 0.028612232 0.022174818
-0.007863673 0.020353308 -0.016292116 -0.066905886 -0.046039376 0.019529834 -0.10603674 -0.0454994
0.037347417 -0.016530186 -0.0149846105 -0.037111886 0.00016358194 -0.049102403 -0.041605018 0.007806339
-0.076459095 0.01446178 -0.072310895 -0.012840961 -0.099262245 0.03420792 0.08205567 -0.07325508
-0.036424685 -0.045478817 0.033584673 -0.05317127 0.0379215 -0.08722183 0.00048297294 -0.043434203
-0.04673127 0.00024737677 -0.08216751 0.07528252 -0.029645715 -0.0053228815 0.03851777 -0.05968631
-0.06919992 -0.041562814 -0.006788088 -0.06554063 0.02354936 -0.030206533 -0.04062219 0.01654301
-0.055529106 -0.04868881 -0.003700994 0.033372723 0.008986898 0.020041341 0.0035353831 6.708341e-05
-0.020134635 0.05984721 -0.026456 0.025044922 0.0053584576 0.018108917 0.049127012 -0.049648497
-0.004482999 0.025939506 0.023888914 0.019939333 0.02799004 -0.037903342 0.017772485 0.026548117
0.074582614 -0.042189028 0.018739674 0.05169452 -0.05972028 0.0025540525 -0.035943612 0.019523332
0.056401078 -0.06149992 0.038555942 0.04669312 0.03984625 -0.015258649 0.0846138 0.020529442
-0.04772616 -0.009494107 0.016942132 0.06441735 -0.044142265 -0.019455252 0.058202505 -0.07911013
-0.036652148 0.01515297 -0.001642813 0.0072230035 0.06387756 0.057019886 -0.0018933156 -0.008503195
-0.04957986 0.047764387 0.022168994 0.016236717 0.06912926 -0.060625196 -0.06289015 0.065746985
00000000: 77ca 19bc 3808 de3b 2cd1 98bd cefa 243d
00000010: b7b4 ad3b a54e 103b a717 013d 0c4b 44bc
00000020: 61f8 82bc 3411 ba3d bea8 4bbd a89c 9c3c
00000030: 3815 86bd 441e d4bd ef3f debc 7dd3 3dbd
00000040: ebeb 91bb 2dae 3dbc 0131 53bd 9afe 07bd
00000050: a4f0 803d 3f0a 623d 8129 aabb dcea 4bbd
00000060: ea40 453b 5aca 973d d931 94bd 92d8 dabb
00000070: 3b74 6f3c e028 4f3d 0c17 03bd d65d 28bd
00000080: 6054 d1bd b123 063d 965f 05bd 8535 323c
00000090: edd6 38bc cdae a53d 441c 883d 03bd a83a
000000a0: 8874 f63c 5b8a b13c bae5 f5bd 9fe1 b43d
000000b0: 1e7e 883d 16cb 10be d46f a93d 6047 afbd
000000c0: 91c4 31bc 01cc 88bd 2ba2 c23c 2e29 8fbb
000000d0: 8eb7 b7bc 4a39 5abb b94b 543d 6fa7 aebc
000000e0: f652 96bc df7d 893d 0e26 38bc 2bde fcbc
000000f0: 08a6 f13c 0c71 0c3b a78f 81bd c2b7 f3bc
00000100: c342 54bd ec2b 07bb 919a e2bc 67a8 2cbd
00000110: a0e2 343d 3efc f6bc 0337 2f3d 656c 5cbd
00000120: 148c a53c 6413 223d 1903 b5bd 2637 093c
00000130: a425 403d 4416 36bd 4c6f 9b3c 92e4 95bd
00000140: b8f9 2f3d 1608 92bd 2461 a5bd f234 6cbd
00000150: 4afa 94bc 15f0 a83d 0acb 4cbd a53f 24bd
00000160: 0226 42bc a41f 5f3d abb5 1abc 77c7 583d
00000170: 3045 f23c c9ab 4a3c 8df7 623d 365f 7c3c
00000180: d05a ebbc f1f7 56bd aa98 88bd 02c4 1b3d
00000190: 4899 08bd e937 4d3d 8dc4 7c3d a5c5 8a3a
000001a0: ec84 a8bb 8dd8 393d 5b60 8ebd 1ae1 58bd
000001b0: e48c 203d 5d21 7dbd 6c4b 8a3d 462b 66bd
000001c0: 8020 da3c dd81 b93c 98b8 16bd d88c 2b3c
000001d0: b175 643d 255e 54bc dbea e8bc df53 cbbc
000001e0: a042 453c f630 20bd 794f 0dbd 013a c03c
000001f0: b70b b7bc 5bcc f9ba 469c 323d 23ed 01bd
00000200: a369 9bbd 3c77 e03c 45cd 6dbd 20e8 1f38
00000210: 6831 62bd 47ce e53c 8917 563d 77b5 4cbc
00000220: 0393 a43c 7dd5 61bd be3a 9a3c 9d50 af3c
00000230: cc18 8ebd 040f a0bd 3364 ea3c f7a7 b53c
00000240: a3d6 00bc fbbb a63c 0b77 85bc f405 89bd
00000250: c993 3cbd 08fd 9f3c ca29 d9bd 945d 3abd
00000260: 9bf9 183d 506a 87bc 0382 75bc a202 18bd
00000270: 3187 2b39 9a1f 49bd 066a 2abd 51cc ff3b
00000280: 9696 9cbd 1af1 6c3c bc17 94bd e562 52bc
00000290: 014a cbbd 9b1d 0c3d ce0c a83d c206 96bd
000002a0: 0d32 15bd ff47 3abd 1590 093d 1eca 59bd
000002b0: 9353 1b3d 5ca1 b2bd 8837 fd39 10e8 31bd
000002c0: 4a69 3fbd 59b2 8139 7147 a8bd b92d 9a3d
000002d0: 92db f2bc 916b aebb cfc4 1d3d a279 74bd
000002e0: b0b8 8dbd c53d 2abd 9c6e debb 2a3a 86bd
000002f0: 96ea c03c b173 f7bc 7463 26bd 3585 873c
00000300: 7d72 63bd eb6d 47bd 608c 72bb d6b1 083d
00000310: c83d 133c bd2d a43c e3b1 673b 22af 8c38
00000320: 64f1 a4bc 5922 753d 41ba d8bc 022b cd3c
00000330: 0096 af3b 2759 943c 6839 493d 395c 4bbd
00000340: 1fe6 92bb 167f d43c afb2 c33c d057 a33c
00000350: 5e4b e53c 8940 1bbd 9a97 913c 707b d93c
00000360: c5be 983d 67ce 2cbd f283 993c a2bd 533d
00000370: 419d 74bd e461 273b 9c39 13bd 65ef 9f3c
00000380: d104 673d 57e7 7bbd d6ec 1d3d 4941 3f3d
00000390: d235 233d 6aff 79bc 004a ad3d 5c2d a83c
000003a0: 827c 43bd 2c8d 1bbc 3aca 8a3c 3eed 833d
000003b0: 85ce 34bd 9f60 9fbc c065 6e3d 7e04 a2bd
000003c0: 9020 16bd 2a44 783c a853 d7ba f2ae ec3b
000003d0: 3dd2 823d af8d 693d 2129 f8ba fc50 0bbc
000003e0: 4014 4bbd 97a4 433d c09b b53c dd02 853c
000003f0: a493 8d3d 2052 78bd 8dcc 80bd 5ba6 863d

sequential/dense/BiasAdd/ReadVariableOp f4 [32]
-0.022112802 -0.023112563 -0.040451765 -0.04214072 -0.02126409 -0.023613753 -0.043758962 -0.039370973
-0.037285496 -0.038696088 -0.022435587 -0.020391772 -0.024058728 -0.02846314 -0.029964652 -0.038154714
-0.042694673 -0.04798155 -0.045696713 -0.04652509 -0.041783813 -0.01733893 -0.045482956 -0.04015493
-0.042279344 -0.034978542 -0.0389975 -0.024817659 -0.02964228 -0.0376075 -0.016963681 -0.022249639
00000000: e825 b5bc 8f56 bdbc c0b0 25bd bf9b 2cbd
00000010: 0732 aebc a171 c1bc 993c 33bd 7543 21bd
00000020: adb8 18bd ca7f 1ebd d6ca b7bc a50c a7bc
00000030: cf16 c5bc 882b e9bc 6e78 f5bc 1e48 1cbd
00000040: 9ce0 2ebd 4d88 44bd 7a2c 3bbd 1891 3ebd
00000050: 8125 2bbd 5f0a 8ebc 564c 3abd 7f79 24bd
00000060: 1b2d 2dbd a945 0fbd d8bb 1fbd 674e cbbc
00000070: 5ed4 f2bc 520a 1abd 6bf7 8abc e044 b6bc

sequential/dense_1/BiasAdd/ReadVariableOp f4 [2]
-0.08642111 0.0864211
00000000: 8dfd b0bd 8cfd b03d

sequential/batch_normalization/FusedBatchNormV3 f4 [16]
25.704056 19.395683 24.325262 30.961212 29.213118 24.23242 26.263952 22.265345
30.37679 30.907732 30.81784 26.324625 22.296768 21.919785 29.463514 21.937006
00000000: e8a1 cd41 5c2a 9b41 239a c241 90b0 f741
00000010: 77b4 e941 ffdb c141 931c d241 6d1f b241
00000020: aa03 f341 0943 f741 f08a f641 d598 d241
00000030: c85f b241 b85b af41 47b5 eb41 fd7e af41

sequential/batch_normalization/FusedBatchNormV31 f4 [16]
0.020888872 -0.44404802 -0.90289885 -0.21008268 0.0036394633 -0.85983765 -0.21656092 -0.4285718
-0.009111308 -0.02854532 0.010950021 -0.44452405 -0.13364454 -0.67573357 -0.35719573 -0.5031824
00000000: 241f ab3c 435a e3be 6124 67bf ea1f 57be
00000010: 1084 6e3b 521e 5cbf 25c2 5dbe c36d dbbe
00000020: 9847 15bc e0d7 e9bc b867 333c a898 e3be
00000030: 1dda 08be e0fc 2cbf 5ce2 b6be 90d0 00bf

sequential/batch_normalization_1/FusedBatchNormV3 f4 [32]
1.5602828 1.8695576 2.3508828 1.7952647 1.6536351 2.52665 4.126214 1.1936544
2.9030182 1.8062112 1.7498256 1.803199 1.1642841 2.0834312 4.3775153 2.6892855
2.7322783 1.0681499 1.3913349 2.6523561 1.6608552 3.313526 1.6376958 1.9486463
1.9750692 3.2175503 1.9677271 2.0839038 1.5893092 1.4270049 2.8938353 4.384014
00000000: 59b7 c73f aa4d ef3f dd74 1640 3ccb e53f
00000010: 51aa d33f a2b4 2140 f209 8440 abc9 983f
00000020: 0dcb 3940 ee31 e73f 49fa df3f 3acf e63f
00000030: 4307 953f f056 0540 9b14 8c40 411d 2c40
00000040: a6dd 2e40 23b9 883f 4317 b23f 34c0 2940
00000050: e796 d43f cf10 5440 04a0 d13f 3e6d f93f
00000060: 11cf fc3f 58ec 4d40 7bde fb3f ae5e 0540
00000070: 7c6e cb3f 19a8 b63f 9934 3940 d849 8c40

sequential/batch_normalization_1/FusedBatchNormV31 f4 [32]
-0.4424532 -0.53608155 -0.70983833 -0.38452053 -0.49322355 -0.8272166 -0.6679369 -0.614187
-0.62358445 -0.42511725 -0.47612593 -0.37234765 -0.58241665 -0.6148886 -1.1581188 -0.88326627
-0.7691814 -0.3933176 -0.38599545 -0.79489547 -0.55778277 -0.6222607 -0.7227422 -0.5604224
-0.56114286 -0.9119967 -0.57955647 -0.52881813 -0.5571342 -0.5821947 -0.8869933 -0.89164275
00000000: 3a89 e2be a43c 09bf f7b7 35bf e0df c4be
00000010: cc87 fcbe 78c4 53bf eafd 2abf 5c3b 1dbf
00000020: 3ba3 1fbf f8a8 d9be c7c6 f3be 5aa4 bebe
00000030: 4219 15bf 5769 1dbf 3d3d 94bf bd1d 62bf
00000040: 12e9 44bf ed60 c9be 32a1 c5be 457e 4bbf
00000050: daca 0ebf 7a4c 1fbf a205 39bf d877 0fbf
00000060: 0fa7 0fbf 9e78 69bf d05d 14bf a060 07bf
00000070: 59a0 0ebf b60a 15bf fe11 63bf b342 64bf

sequential/batch_normalization_2/FusedBatchNormV3 f4 [64]
1.3699926 1.7496077 1.0726887 1.6192144 0.7215925 0.9702974 1.2727816 1.2009125
1.0907454 0.94829 0.71561724 1.108859 1.1756641 1.1420178 1.2713679 1.2163275
0.8309205 0.9441872 1.0304898 0.9278858 0.96962994 1.3003819 0.8587875 1.4851593
2.301059 1.4618925 1.7371511 0.98599017 1.2758291 1.5917642 1.1887846 1.0885977
2.0546706 0.86167884 0.9763084 1.2634441 0.993241 0.9780569 1.3390129 0.9586893
0.9875265 1.4074837 0.8779244 1.1544763 0.8257287 0.75832033 0.84962857 0.7788074
1.0215975 1.2146037 0.8752318 1.1797323 1.2333658 1.3254625 0.98259896 1.2761966
0.96392584 0.7190352 0.7849701 0.8911334 0.9205031 1.1086801 1.2105873 0.93926084
00000000: eb5b af3f 25f3 df3f dd4d 893f 6b42 cf3f
00000010: 49ba 383f 6965 783f 82ea a23f 80b7 993f
00000020: 8c9d 8b3f 22c3 723f b132 373f 17ef 8d3f
00000030: 297c 963f a42d 923f 2fbc a23f 9fb0 9b3f
00000040: 35b7 543f 41b6 713f 17e7 833f ec89 6d3f
00000050: ab39 783f ea72 a63f 7fd9 5b3f b319 be3f
00000060: 8d44 1340 4b1f bb3f f85a de3f da69 7c3f
00000070: 5e4e a33f eebe cb3f 182a 983f 2b57 8b3f
00000080: b97f 0340 fc96 5c3f 59ef 793f 89b8 a13f
00000090: 0b45 7e3f f061 7a3f c664 ab3f a96c 753f
000000a0: 89ce 7c3f 6d28 b43f a7bf 603f e1c5 933f
000000b0: f562 533f 4821 423f 4281 593f ec5f 473f
000000c0: b5c3 823f 2278 9b3f 310f 603f 7801 973f
000000d0: eede 9d3f c1a8 a93f 9b8b 7b3f 695a a33f
000000e0: d8c3 763f b112 383f cdf3 483f 5221 643f
000000f0: 17a6 6b3f 3be9 8d3f 86f4 9a3f 6673 703f

sequential/batch_normalization_2/FusedBatchNormV31 f4 [64]
-1.1341299 -0.87923086 -0.7807167 -0.95587474 -0.8996812 -0.75638485 -1.2403593 -1.0682969
-0.9330293 -0.86560893 -0.8558163 -0.88249266 -0.91034657 -0.8451459 -0.8560276 -0.91625136
-0.85383934 -0.95996934 -0.9059263 -0.851983 -0.92077976 -0.95207757 -0.80106986 -1.2335899
-0.72350395 -1.309765 -0.87528735 -1.0725244 -1.0518755 -0.75587916 -0.9063664 -0.78604037
-0.88580066 -0.7756238 -0.85541534 -1.1983677 -0.90013784 -0.89573836 -0.71175194 -0.83101684
-0.8096837 -0.8270403 -0.93640035 -1.0167458 -0.7956426 -0.78688145 -0.6853778 -0.76083815
-0.79368794 -0.9684188 -0.9282635 -0.7969907 -0.70028377 -1.1470189 -0.9008178 -0.8193034
-0.71183264 -0.63387215 -0.69428056 -0.6937723 -0.7379366 -0.7111858 -0.917471 -0.9846748
00000000: 2b2b 91bf 4615 61bf 0ddd 47bf 35b4 74bf
00000010: 8251 66bf 70a2 41bf 18c4 9ebf f4bd 88bf
00000020: 02db 6ebf 8c98 5dbf c716 5bbf 0aeb 61bf
00000030: 790c 69bf 7b5b 58bf a024 5bbf 738f 6abf
00000040: 3795 5abf 8dc0 75bf c9ea 67bf 8f1b 5abf
00000050: 39b8 6bbf 5bbb 73bf ea12 4dbf 46e6 9dbf
00000060: 8e37 39bf 61a6 a7bf d512 60bf 7b48 89bf
00000070: dba3 86bf 4c81 41bf a107 68bf f139 49bf
00000080: d5c3 62bf 488f 46bf 80fc 5abf 1d64 99bf
00000090: 6f6f 66bf 1c4f 65bf 6035 36bf 85bd 54bf
000000a0: 6e47 4fbf eab8 53bf efb7 6fbf ba24 82bf
000000b0: 3caf 4bbf 1071 49bf eb74 2fbf 4ac6 42bf
000000c0: 222f 4bbf 4bea 77bf ada2 6dbf 9507 4cbf
000000d0: cc45 33bf 84d1 92bf ff9b 66bf debd 51bf
000000e0: aa3a 36bf 7245 22bf 5fbc 31bf 109b 31bf
000000f0: 6ae9 3cbf 4610 36bf 61df 6abf a613 7cbf

sequential/dense/MatMul f4 [32, 6400]
-0.0015146106 -0.0030588903 -0.020525396 0.024054267 0.001129824 -0.029812936 -0.020677617 -0.00858028
0.043544494 -0.008984683 0.024138175 0.007735679 -0.014596313 -0.02919815 -0.0012976717 0.012753008
-0.00013474957 -0.020793682 0.010955342 -0.0015020792 0.01946096 0.0318503 0.019379813 -0.015548004
0.009095445 -0.0010447826 0.033319253 -0.0077621387 0.009138973 -0.011807212 -0.01875003 -0.02812813
0.02826019 0.024637027 -0.022092622 0.012905518 -0.01848599 0.016706688 -0.00059332105 0.010307267
0.016489606 -0.028495474 -0.026790092 -0.0405199 -0.03401304 -0.04419964 -0.007010261 -0.006309153
-0.0144770015 0.033919115 0.022226129 -0.010457368 -0.002349916 -0.03014372 -0.024437467 0.027800368
-0.020786874 0.025149139 0.010122303 -0.033341784 0.01055624 -0.030270934 -0.026955316 0.01143498
0.014996781 -0.003470017 -0.022747487 -0.040771693 -0.03837306 0.022028862 0.029434139 -0.026225215
-0.0030733142 -0.010343394 -0.003975417 -0.0017685145 -0.010645122 -0.02025101 0.021166913 0.015918588
-0.014026308 0.02406984 0.011001719 0.0058659636 0.011319648 -0.0010560645 -0.008870392 -0.00013111666
0.022105511 0.015346534 0.013358409 -0.0150875775 -0.036720756 0.003035775 0.019973708 0.032001264
-0.021890623 -0.024352362 0.006964403 -0.0051070107 0.0043162154 -0.0033546365 0.011423761 -0.017849294
0.015105692 -0.029019736 -0.016477382 -0.0070425263 -0.009965274 0.003380749 -0.008191534 0.017704625
-0.013040915 0.00534422 -0.0023927316 0.010435076 -0.02526431 -0.025871338 -0.017556554 -0.0003602316
-0.0028446673 -0.032151617 0.0065394635 0.00032550463 -0.0036270518 -0.008924853 0.007831435 0.015152839
-0.015189521 -0.019702423 -0.027979143 0.0017521005 -0.0038498316 -0.029546995 -0.011909166 0.013587749
0.03332577 -0.0023281495 0.019941853 -0.023071349 -0.030380702 0.00521395 0.009019748 -0.0028517742
0.01704633 0.0068423753 -0.011202612 -0.026168916 0.030208193 -0.021693682 0.024653332 -0.018999908
0.006729824 0.012186273 0.019929823 0.021174308 -0.0023760458 0.009939872 -0.0040829484 -0.014927383
-0.030263178 -0.012173093 -0.025663717 0.008562143 0.018088153 0.016796634 -0.013339169 0.003986511
-0.022873968 -0.023089906 -0.008059322 0.01832089 0.006685989 -0.03536616 0.020804254 -0.0118667735
-0.019636562 -0.00493038 0.016700178 0.0043323506 -0.010548828 -0.01603748 -0.0064317062 -0.0009133754
0.003244856 -0.027879553 0.025766982 0.019155443 -0.010159596 -0.010494849 -0.01812623 0.0054114214
-0.00021466012 -0.01711219 0.020613568 -0.0036897918 0.024925837 0.016058957 -0.0074647316 -0.02429649
-0.014602791 -0.030447911 -0.015886351 -0.030888721 -0.01464778 -0.019443179 -0.023723138 0.02067319
-0.01697338 0.006360259 -0.034456056 -0.024010697 -0.007048172 -0.0029089388 0.020191351 0.021726802
0.0058125714 0.016811697 0.019657243 0.009543308 0.002387582 -0.008014327 -0.009050672 0.024467396
-0.026086986 0.015679417 -0.0030331477 -0.0063784295 0.0098040765 0.010782443 0.012673064 0.02550237
0.011384616 -0.017199062 -0.030256039 -0.01531345 0.0071457215 -0.003859863 -0.040639017 0.009656466
0.019402957 0.0012074456 0.022728354 0.004878347 -0.018069902 0.007330892 0.0058951494 0.0017339106
-0.024024922 -0.01316327 -0.021419832 0.02634778 0.042629067 -0.024937855 0.0064471695 -0.045296077
00000000: e685 c6ba aa77 48bb e024 a8bc 740d c53c
00000010: 9a16 943a 423a f4bc 1b64 a9bc 4d94 0cbc
00000020: b65b 323d 7e34 13bc 6cbd c53c 947b fd3b
00000030: 6025 6fbc f530 efbc a316 aaba fef1 503c
00000040: 904b 0db9 8357 aabc 097e 333c 6ae1 c4ba
00000050: 976c 9f3c 7675 023d 6ac2 9e3c 0ebd 7ebc
00000060: 1005 153c 16f1 88ba c579 083d 8a59 febb
00000070: a2bb 153c 0973 41bc aa99 99bc f76c e6bc
00000080: ea81 e73c 97d3 c93c 96fb b4bc aa71 533c
00000090: ee6f 97bc 77dc 883c 1a89 1bba d0df 283c
000000a0: 3615 873c 576f e9bc e576 dbbc 32f8 25bd
000000b0: 4251 0bbd af0a 35bd 55b6 e5bb 03bd cebb
000000c0: f230 6dbc c5ee 0a3d 9213 b63c 6155 2bbc
000000d0: 0c01 1abb f6ef f6bc 1531 c8bc 99bd e33c
000000e0: 3c49 aabc 9105 ce3c 04d8 253c 6591 08bd
000000f0: 14f4 2c3c c0fa f7bc 65d1 dcbc c859 3b3c
00000100: 0fb5 753c 3a69 63bb f058 babc 3800 27bd
00000110: 122d 1dbd df75 b43c dd1f f13c 43d6 d6bc
00000120: a869 49bb 5777 29bc 3744 82bb 80cd e7ba
00000130: e168 2ebc 72e5 a5bc 3c66 ad3c b367 823c
00000140: 9ace 65bc 1d2e c53c 8e40 343c 4537 c03b
00000150: 0b76 393c a56b 8aba 1f55 11bc 5c7c 09b9
00000160: 9e16 b53c 0770 7b3c 3add 5a3c e331 77bc
00000170: 8168 16bd daf3 463b e79f a33c c213 033d
00000180: f753 b3bc 9b7e c7bc a635 e43b b658 a7bb
00000190: 0a6f 8d3b 76d9 5bbb ba2a 3b3c af38 92bc
000001a0: dd7d 773c ccba edbc 93fb 86bc fec4 e6bb
000001b0: 6345 23bc 8e8f 5d3b c935 06bc 4a09 913c
000001c0: 90a9 55bc 911e af3b 60cf 1cbb e2f7 2a3c
000001d0: 19f7 cebc 21f0 d3bc c3d2 8fbc 78dd bcb9
000001e0: 996d 3abb 6ab1 03bd ff48 d63b 7ea8 aa39
000001f0: d5b3 6dbb 8c39 12bc 6b4f 003c 9d43 783c
00000200: 78dd 78bc fa66 a1bc 8434 e5bc bda6 e53a
00000210: 754d 7cbb 8a0c f2bc aa1e 43bc 269f 5e3c
00000220: 9a80 083d de93 18bb 195d a33c 2000 bdbc
00000230: f3e0 f8bc c8d9 aa3b 91c7 133c d5e4 3abb
00000240: bfa4 8b3c 0136 e03b 298b 37bc 3260 d6bc
00000250: 2c77 f73c f3b6 b1bc c9f5 c93c b2a5 9bbc
00000260: db85 dc3b efa8 473c de43 a33c be75 ad3c
00000270: 6fb7 1bbb d8da 223c 41ca 85bb fb91 74bc
00000280: 7cea f7bc a771 47bc b73c d2bc 3b48 0c3c
00000290: 9b2d 943c 1899 893c 888c 5abc 47a1 823b
000002a0: 3062 bbbc 0b27 bdbc 3f0b 04bc b115 963c
000002b0: 2416 db3b 1bdc 10bd af6d aa3c db6c 42bc
000002c0: dbdc a0bc 068f a1bb d0ce 883c 64f6 8d3b
000002d0: fed4 2cbc 0961 83bc 10c1 d2bb 966f 6fba
000002e0: a6a7 543b a963 e4bc 4715 d33c e0eb 9c3c
000002f0: 6f74 26bc 96f2 2bbc 767d 94bc 4b52 b13b
00000300: 6316 61b9 dd2e 8cbc c9dd a83c 6fd0 71bb
00000310: 4531 cc3c 138e 833c b59a f4bb 6f09 c7bc
00000320: 8b40 6fbc e66d f9bc 1824 82bc 580a fdbc
00000330: 3efd 6fbc 4d47 9fbc 0757 c2bc d25a a93c
00000340: c20b 8bbc b869 d03b cb21 0dbd 15b2 c4bc
00000350: 5af4 e6bb e5a3 3ebb 5568 a53c 68fc b13c
00000360: 6277 be3b afb8 893c 3a08 a13c 895b 1c3c
00000370: fb78 1c3b 864e 03bc 4549 14bc d96f c83c
00000380: 60b4 d5bc 1f72 803c c6c7 46bb 2502 d1bb
00000390: 47a1 203c d8a8 303c afa2 4f3c 59ea d03c
000003a0: 8a86 3a3c 0ce5 8cbc 83db f7bc 44e5 7abc
000003b0: a826 ea3b c1f5 7cbb 1975 26bd 2736 1e3c
000003c0: f3f2 9e3c 2743 9e3a d030 ba3c 8ada 9f3b
000003d0: 5507 94bc fb37 f03b 192c c13b 6344 e33a
000003e0: eacf c4bc c2aa 57bc a578 afbc 4dd7 d73c
000003f0: d19b 2e3d 794a ccbc c742 d33b 6188 39bd

sequential/dense_1/MatMul f4 [2, 32]
0.1327034 -0.25426278 -0.32798094 0.32325888 0.223034 0.2663986 -0.09878885 -0.38433394
-0.25158578 0.13939229 -0.09160153 0.10136694 -0.34217384 0.06709474 -0.093224496 0.20644486
-0.36959118 -0.16150151 -0.03498641 -0.07226319 -0.2100174 0.1299828 -0.1169782 0.21984676
-0.19727975 -0.24063043 0.09075331 -0.10047035 0.2848356 -0.021981684 0.1514203 0.37639964
-0.23558564 -0.113513395 -0.11611971 0.12562226 -0.033792697 -0.24008305 -0.29339245 -0.22329439
-0.07981899 0.28027642 -0.32067767 -0.12595461 -0.21231425 0.21694306 -0.28693983 0.35482165
-0.15860997 0.27957055 -0.19159727 0.27736244 -0.054796014 -0.34390306 0.2784906 0.050161395
0.012052663 -0.39098194 -0.08532696 -0.29287305 -0.14481044 0.32344082 -0.07255567 0.19814023
00000000: 66e3 073e bb2e 82be 1eed a7be 3082 a53e
00000010: 0663 643e 6665 883e cf51 cabd 6bc7 c4be
00000020: dacf 80be dabc 0e3e 9599 bbbd 7899 cf3d
00000030: 6931 afbe f868 893d 7cec bebd 4866 533e
00000040: 0e3b bdbe a760 25be e94d 0fbd b9fe 93bd
00000050: cd0e 57be 361a 053e 4492 efbd 821f 613e
00000060: b403 4abe d367 76be dfdc b93d 66c3 cdbd
00000070: f9d5 913e ef12 b4bc ec0d 1b3e 74b7 c03e
00000080: 5d3d 71be b679 e8bd 2cd0 edbd 1fa3 003e
00000090: 366a 0abd 55d8 75be 8937 96be 49a7 64be
000000a0: 2378 a3bd 6480 8f3e dd2f a4be 3ffa 00be
000000b0: e868 59be 5226 5e3e c7e9 92be 2fab b53e
000000c0: a76a 22be df23 8f3e 1332 44be 7302 8e3e
000000d0: c971 60bd 1014 b0be 5296 8e3e 0976 4d3d
000000e0: 8878 453c c92e c8be e7bf aebd 75f3 95be
000000f0: 3049 14be 099a a53e 1198 94bd 46e5 4a3e
